Main_ESTU/scripts/Python/content/T400_M200residual.pth (torch, 545921 bytes, 111 tensors)

patch_embed.proj_dense.weight f4 [64, 32]
000000 7d cd 26 bd 41 40 41 bc 89 62 ad bd 47 3e af bd
       -0.040723313 -0.0117951045 -0.0846606 -0.085568
000010 78 28 40 3d 77 3b 9e 3d e5 1c cc bd 66 c4 61 bd
       0.046913594 0.07726186 -0.09966449 -0.05511894
000020 ca 32 af bc d2 25 53 3d ac cc 19 bc 82 e1 3f 3c
       -0.021386523 0.05154974 -0.0093871765 0.01171148
000030 11 6e d8 3d 57 9a 3d 3d 7f a8 d8 bd 0b ba cd bd
       0.105678685 0.046289768 -0.10579013 -0.100452505
000040 6d c8 1d be a9 8f b3 bd 63 f7 0e 3d 04 e3 c9 bb
       -0.15408488 -0.087676354 0.034903895 -0.0061610956
000050 87 37 9b bd ed b6 a8 bc 52 2f d9 3d f1 28 c6 3c
       -0.075789504 -0.020595038 0.10604729 0.024189444
000060 8a 7f 03 3d 42 e9 f3 3b fc ea 47 3e 02 a1 47 3e
       0.032104053 0.007443578 0.19523233 0.19495013
000070 10 22 c1 3d bb 25 0e 3e ba f9 2d be ee 1a 34 be
       0.09430325 0.1388158 -0.16989794 -0.17588398
000080 10 1d 17 bd 87 ce 2f bd ef 83 68 be 87 b4 8e be
       -0.03689295 -0.04292157 -0.22706579 -0.27872106
000090 c2 4e e4 bd 90 d3 45 be c8 79 2e 3e 27 b1 00 3d
       -0.11147834 -0.19318986 0.17038643 0.031418946
0000a0 92 12 04 be 7e fd 08 be 76 f6 fc 3c c4 58 fa 3c
       -0.12897709 -0.1337795 0.03087924 0.030559905
0000b0 84 45 02 3e d5 05 3e 3d 41 0d 92 3d cc 17 53 3d
       0.1272183 0.04639228 0.07131434 0.051536366
0000c0 18 7b 2e bd f4 71 d6 bc 12 23 16 be 8b f2 ca bd
       -0.04259786 -0.026177384 -0.14661816 -0.09909543
0000d0 07 9c da 3d f2 c7 50 3d d0 8b 04 bd 8d 59 06 3e
       0.10674291 0.050971933 -0.032359898 0.13120098
0000e0 aa 39 9f bd bc 56 35 be 45 ef 2d 3d b6 3a 50 3d
       -0.077746704 -0.17708868 0.042464513 0.05083724
0000f0 da b4 7e 3d 31 3c b3 3d 2d a3 44 3d ee 01 5c 3d
       0.062184192 0.08751715 0.04800718 0.053712778
000100 75 76 a9 bd 82 79 ae bd f5 44 79 bd d9 c7 0e be
       -0.08274547 -0.085192695 -0.06085678 -0.13943423
000110 c0 1b 67 3d f8 e8 f8 3d 51 6a 04 be e6 ee d2 bd
       0.05642295 0.1215381 -0.12931181 -0.102994725
000120 c5 e2 5b 3d 01 d8 27 bc 27 5b c8 b9 37 d2 38 3d
       0.05368306 -0.01024437 -0.00038214886 0.04512235
000130 81 ee 96 3d e1 54 3e 3d a4 6e b4 bd 9d 33 de bd
       0.0736971 0.046467666 -0.088101655 -0.10849688
000140 b1 fb e2 bd 23 6c f9 bd 81 60 11 bd eb 25 ad bc
       -0.110831626 -0.121788286 -0.035492424 -0.021136245
000150 ec e5 63 3c b9 10 1a 3d fd 99 08 be c7 7e 78 3c
       0.013909798 0.037613604 -0.13339992 0.015166945
000160 bf 7f 27 bd db b8 ad 3b 6e 4f a9 3d 1f 91 88 3d
       -0.040893313 0.0053015775 0.08267103 0.06668305
000170 ea 23 e2 3d 88 0e 07 3e 20 16 f2 bd f0 df 59 be
       0.11042006 0.13189137 -0.11820626 -0.21276832
000180 77 e5 0f be ae 67 91 3b a1 11 c1 bd 28 b9 82 bd
       -0.14052378 0.0044374084 -0.094271906 -0.06382972
000190 16 b6 3b bd a5 2e 0c 3d 64 fd 02 3d 30 78 eb 3c
       -0.045827948 0.03422417 0.031979933 0.028743833
0001a0 e9 b6 8e bd da 87 2e be 82 fa 14 bd 2d 8c 7a bd
       -0.06968481 -0.17044011 -0.036371715 -0.06116884
0001b0 4c da 06 3b c2 c3 c2 3c 36 5a 67 be ad 08 71 be
       0.0020576892 0.023774985 -0.22593006 -0.23538466
0001c0 0d 60 17 3d 7f 2b ec bc a5 4b be bd 85 a9 ca bd
       0.036956836 -0.028829334 -0.09291772 -0.098956145
0001d0 6a 32 5d be 9e 55 e7 bd 5d 42 db 3d fb 39 a1 3d
       -0.21601263 -0.11295627 0.10706017 0.07872387
0001e0 0b 33 3a be ec 54 0d be e0 74 d7 3d ad 39 91 3d
       -0.18183534 -0.13801926 0.10520339 0.07091079
0001f0 2e d5 8f bc dd 2c 89 3d 97 ff f0 3d 52 da 7c 3d
       -0.017557707 0.0669801 0.117675 0.061731644
000200 f5 14 38 bd 86 b8 8d 3d 45 51 58 3d c3 f4 b5 3d
       -0.04494186 0.06919961 0.05281188 0.08884575
000210 69 f6 57 3e 1a f2 28 3e d8 2e 94 3e 0a a7 cc 3e
       0.21090092 0.16498604 0.2894199 0.3997119
000220 3f 86 7d be 6e bb 47 be 47 3f e0 bd 1c 87 5d be
       -0.24758242 -0.19505093 -0.10949569 -0.21633571
000230 29 5a 29 3d cb 22 af 3c b5 bb 2a bc 8c 38 aa bd
       0.04134575 0.021378895 -0.010420729 -0.08311567
000240 1f 6e 89 3d 96 79 4e 3d 1e ce a3 3d fe fc b7 3d
       0.06710457 0.050408922 0.07998298 0.08983801
000250 03 ff c0 bd 49 3e 52 3b 40 ee e0 bc f8 6f 8e 3c
       -0.094236396 0.0032080582 -0.027457356 0.017387375
000260 57 e6 43 3c 4c dd 8f 3c ed a1 45 3d bc 1b 39 bd
       0.011956773 0.017561577 0.048250128 -0.045192465
000270 76 c6 12 bd 40 23 3a 3d f7 5c 43 be bb ad 5b be
       -0.0358338 0.045443773 -0.19078432 -0.21452992
000280 a4 dd 41 bd a2 08 a2 3c c6 84 f8 3c 0d 51 1c 3d
       -0.047330514 0.019779507 0.030336749 0.038163234
000290 ce fa c0 3d a7 eb 16 3e 95 94 89 bd d3 6c 49 be
       0.09422837 0.14738332 -0.06717793 -0.1967042
0002a0 91 01 ff bd 05 00 da 3c 38 af 6a 3e 1a 7e 2c 3e
       -0.12451471 0.026611337 0.22918403 0.16844979
0002b0 45 c0 82 3d 1b ba d1 3d c2 82 81 3d 02 c2 04 bc
       0.06384329 0.10240575 0.06323768 -0.008102896
0002c0 a8 36 f7 bc c0 7d 35 bd 1a aa dd bd 88 de aa bd
       -0.03017743 -0.044309378 -0.1082346 -0.08343226
0002d0 7e 09 76 be c7 3d a4 be c1 6b 42 bd ac ea c7 3c
       -0.24027058 -0.32078382 -0.047466043 0.024403892
0002e0 b1 d8 aa bd 6d 9f d2 bd 8d d8 a7 bd 5e ec 19 be
       -0.08342112 -0.10284314 -0.08195601 -0.15031573
0002f0 2f 24 ab 3d d4 13 06 3e b0 ed b6 3d db 9f f7 3d
       0.08356511 0.13093501 0.08932054 0.12091037
000300 b6 84 e1 bd 8f 0f c0 bd 24 a1 b8 bd d7 35 06 be
       -0.11011641 -0.093779676 -0.0901511 -0.13106476
000310 9a da 23 3e eb d6 92 3d e6 b1 b9 3c fd 13 5c 3d
       0.16001359 0.071698986 0.022667836 0.05373
000320 e9 30 04 bd 07 1c ac 3d 8b 5f b1 3d 9c d7 09 3e
       -0.032273207 0.08403783 0.086608015 0.13461155
000330 be 85 6f bd 5d 62 9c bd 2b a4 21 be 0e 1f 27 be
       -0.058477156 -0.07635949 -0.15785281 -0.1632044
000340 a1 49 05 be 34 10 c7 bd 8b da 6a 3c 23 73 04 3d
       -0.13016368 -0.097198874 0.014334331 0.032336365
000350 63 98 df 3d 15 c6 d1 3c a3 5d 61 bd f2 51 d1 bd
       0.10917737 0.025607148 -0.05502094 -0.10220708
000360 c0 e9 9e 3d 32 03 8d 3d e1 6e 16 3d 40 d1 63 3d
       0.07759428 0.06885375 0.036726836 0.05561948
000370 66 f4 b8 bd db ba a7 bd f2 2c 3b bd 41 4f c8 bd
       -0.0903099 -0.08189937 -0.04569716 -0.097807415
000380 2d fc be bd 1a 19 b6 3c c0 67 f4 bd ec d9 ab bd
       -0.093254425 0.022228766 -0.11933851 -0.08391175
000390 5b 87 be 3d 35 5f bd 3d 83 db 2a 3d fe fb 27 bc
       0.09303161 0.09246675 0.04171325 -0.010252951
0003a0 5a 18 da 3d fe fc e4 3d 8f b9 96 bd 2a b9 e7 3b
       0.10649176 0.11181067 -0.07359611 0.007071634
0003b0 05 40 1d 3d de 3d 13 3e 34 e5 bd 3c ba 1b 78 3c
       0.038391132 0.14379069 0.023180582 0.015143329
0003c0 28 c4 ee bd c2 15 e8 bd 31 c7 ff bd 23 7c 1f be
       -0.116585076 -0.11332275 -0.124891646 -0.15574698
0003d0 80 a9 89 bd 82 8c 61 3c 71 25 e6 3d cc 12 91 3d
       -0.06721783 0.01376641 0.1123761 0.07083663
0003e0 71 22 3b 3c 64 cf 1f bc a1 39 b5 bc c9 e2 02 bc
       0.011421786 -0.009754036 -0.022122206 -0.00798864
0003f0 a2 e3 ff 3c 2f cc 8e 3d 05 3e 0e be 2c 22 3a be
       0.031236473 0.06972539 -0.13890846 -0.18177098

patch_embed.proj_bn.weight f4 [64]
000000 b9 83 b8 3f c6 bb 89 3f 2c 10 ab 3f e9 49 b1 3f
       1.4415199 1.0760429 1.336431 1.385068
000010 43 81 a1 3f 4e a8 97 3f 51 08 a8 3f a2 00 a1 3f
       1.2617573 1.1848238 1.3127538 1.2578318
000020 70 fb 8b 3f 28 bb a3 3f 2a 09 90 3f 36 bb 8a 3f
       1.0936108 1.279149 1.1252797 1.0838382
000030 39 ce a0 3f 16 aa 9e 3f dd 94 a1 3f bd f2 93 3f
       1.2562934 1.2395656 1.2623554 1.1558453
000040 f1 75 a4 3f cc 83 a8 3f f8 00 89 3f 42 41 9e 3f
       1.2848493 1.3165221 1.0703421 1.2363665
000050 c8 aa a0 3f c2 24 a4 3f e4 4e 9d 3f b6 55 95 3f
       1.2552118 1.2823718 1.22897 1.1666782
000060 fb 31 a0 3f ad 0d aa 3f d5 63 a2 3f 7b fc a3 3f
       1.2515253 1.3285424 1.2686716 1.2811426
000070 b9 92 95 3f 8e fc 75 3f cf aa 98 3f 53 ca 98 3f
       1.1685401 0.9608849 1.1927127 1.1936744
000080 fd 63 91 3f 11 56 a8 3f e3 fa cc 3f 5b 1d ac 3f
       1.1358639 1.3151265 1.6014065 1.3446459
000090 ad 4a ac 3f df 85 9f 3f 07 cd a4 3f 73 ba 9b 3f
       1.3460289 1.2462729 1.2875069 1.2166275
0000a0 78 ce b0 3f 92 76 a8 3f 16 2b 9a 3f f3 08 9a 3f
       1.3813009 1.3161185 1.2044399 1.2033981
0000b0 45 fe a9 3f 3f ae aa 3f 40 a2 93 3f 75 0d a3 3f
       1.3280722 1.3334426 1.153389 1.2738482
0000c0 43 84 a0 3f a0 7a b0 3f 34 fd a3 3f 27 d5 a5 3f
       1.2540363 1.3787422 1.2811646 1.2955674
0000d0 ab 74 a4 3f 33 fb a1 3f 9d dd 9f 3f 54 47 a7 3f
       1.2848104 1.2654785 1.2489506 1.3068643
0000e0 35 b2 a2 3f 83 fb 6f 3f af d4 8b 3f 42 52 8d 3f
       1.2710634 0.9374315 1.0924281 1.1040728
0000f0 b9 e3 ab 3f 89 5e 9c 3f 70 26 9a 3f 2e 05 9f 3f
       1.342887 1.221635 1.204298 1.2423456

patch_embed.proj_bn.bias f4 [64]
000000 89 f4 9c 3e a1 4e 23 bd 11 2e 58 3e 1e 03 65 3e
       0.30655316 -0.03986991 0.21111323 0.2236447
000010 a0 0d 43 be 05 2c 05 bd 22 11 38 3e 3a b6 43 3e
       -0.19048166 -0.032512683 0.17975286 0.19112483
000020 e1 b2 c9 3d f2 87 7a 3d 90 80 dc bc 77 c3 71 bd
       0.098485716 0.061164804 -0.026916772 -0.0590243
000030 7c 64 11 3e 85 2a b0 bd a7 d4 55 3e 89 a3 3c 3c
       0.14198488 -0.0860186 0.20881902 0.011513599
000040 2a 2a 5f 3e df 24 5a 3e 22 58 6d bd 20 13 0b 3e
       0.21793428 0.21303128 -0.057945378 0.13581514
000050 bc 7f c2 bd e0 cc 84 3e 14 34 85 3e 07 e5 9c bd
       -0.0949702 0.25937557 0.26016295 -0.07660871
000060 81 c0 ff 3d 10 b2 24 3e a6 51 29 3e bf 5e 07 be
       0.12487889 0.1608355 0.16535053 -0.13219737
000070 03 c3 50 bd 7c 6f 2c be e0 cd 61 bd 37 28 47 3c
       -0.050967228 -0.16839403 -0.05512798 0.012155584
000080 96 4b 04 bd cb 3d 32 3e af ce 91 3e 95 75 1c 3c
       -0.032298647 0.17406385 0.28478 0.009549518
000090 5c 74 38 3e 25 7c 67 3e 45 79 51 3e 90 65 20 be
       0.18013138 0.22605951 0.20456417 -0.15663743
0000a0 16 19 b1 3d e4 e0 7d 3e c2 7a 36 be 73 13 3e bd
       0.08647363 0.2479282 -0.17820266 -0.046405267
0000b0 92 87 83 3e 70 a7 03 3e cd aa a4 bc 31 3a 25 3e
       0.2568937 0.12856841 -0.020100975 0.1613548
0000c0 ba 39 ad bd 52 e1 a5 3e 85 02 ce 3d 40 16 82 3e
       -0.08458276 0.32398468 0.10059074 0.254076
0000d0 3b eb 65 3e 64 a8 12 3e 3f 96 24 3e 54 09 ad bd
       0.22453015 0.14322048 0.1607294 -0.08449045
0000e0 25 d1 fc 3b 65 86 b0 be a7 6f 1b be e1 f1 47 bc
       0.0077153617 -0.34477535 -0.1517931 -0.0122036645
0000f0 91 84 96 bd 26 82 0e bc 83 85 1a 3d 83 33 4e 3e
       -0.07349504 -0.008698022 0.037724983 0.20136838

patch_embed.proj_bn.running_mean f4 [64]
000000 47 2c 4d bd 17 b7 a6 bd c5 4d ae bd 89 43 a7 bd
       -0.050091054 -0.0814039 -0.08510927 -0.08167178
000010 75 fa 1b 3b f6 6f c3 3b 03 43 b3 bd 2d d2 a8 bd
       0.0023800407 0.0059642745 -0.08753016 -0.08243213
000020 d8 25 05 bd 50 c1 84 bd ee cd 78 bd 0c 3c 37 3d
       -0.032506794 -0.06482184 -0.060743265 0.044735
000030 72 a5 a4 bd ed 57 00 bd 53 2a b8 bd a0 50 1e 3d
       -0.08039369 -0.031333853 -0.08992448 0.03865111
000040 1c e4 d6 bd 00 18 b1 bd 9c 51 78 bd 10 dd a0 bd
       -0.10492727 -0.08647156 -0.060624704 -0.07854664
000050 d2 ba 46 bd 9f 52 b3 bd 7b 6c 70 bd 15 6c 38 bc
       -0.04851801 -0.08755993 -0.058697205 -0.0112562375
000060 9e 1f c5 bd 59 da 66 bc 2d d7 40 bd d7 ab 33 bd
       -0.09625171 -0.014090144 -0.047080208 -0.04386505
000070 d0 2b a0 3c 71 75 d1 3d b9 37 93 3c ed 9f 0b bd
       0.019552141 0.10227478 0.017970907 -0.034088064
000080 79 4e 68 3d 85 90 c7 bd b1 6a bf bc 86 49 22 3d
       0.056715462 -0.09744362 -0.023366304 0.0396209
000090 59 79 19 3d f3 35 27 be b5 66 41 3a 8d af 6a 3c
       0.03746924 -0.16329174 0.000737767 0.014324081
0000a0 d3 56 31 bc 97 64 01 be 35 ea 1f 3d 55 be 2e bd
       -0.010823923 -0.12636028 0.039041717 -0.042661984
0000b0 4f 25 ea bd 5a b9 15 bc 62 14 e7 bd 6c 7e d3 bd
       -0.11432897 -0.00913843 -0.112831846 -0.103268474
0000c0 74 0b 8d bc 30 01 69 3c 31 1f 12 bc c5 bc 9e bd
       -0.017217375 0.0142214745 -0.008918569 -0.07750849
0000d0 22 38 0d be 34 22 be bd 5a 94 95 bd d7 96 d8 bc
       -0.13790944 -0.092838675 -0.073036864 -0.026439114
0000e0 8c 26 4a bd 59 1c 1d 3d 02 12 cd bc ab 54 4d bd
       -0.049353167 0.038357113 -0.025033 -0.050129574
0000f0 ff ff 70 bc 04 ae 32 bd 85 c9 49 3d 40 ce 12 be
       -0.014709472 -0.043622985 0.04926445 -0.1433649

patch_embed.proj_bn.running_var f4 [64]
000000 ec ec 5b 3c d7 eb c8 3c a2 da 8d 3c 9c 37 ba 3c
       0.013423186 0.02452652 0.017316166 0.022731595
000010 78 e4 7a 3c fb a1 48 3c 82 9e 99 3c be dc 97 3c
       0.01531326 0.01224565 0.01875234 0.018537875
000020 2c 13 98 3c 3b 32 89 3c ab 32 ae 3c d2 ab 7e 3c
       0.01856383 0.016747585 0.021264395 0.015543895
000030 97 5b 69 3c a1 eb 1d 3c 2d e8 c3 3c ec 55 80 3c
       0.014243028 0.009638698 0.023914421 0.01566597
000040 3b 00 2d 3d 10 72 a6 3c 17 e3 90 3c b7 dd a9 3c
       0.042236548 0.020318061 0.01768641 0.020735605
000050 c7 f1 79 3c eb 2e a1 3c 29 a0 6a 3c 87 94 55 3c
       0.015255398 0.019675693 0.014320412 0.0130359
000060 ae 5f d2 3c 16 c0 88 3c 17 89 70 3c 5e 96 95 3c
       0.02568039 0.016693156 0.014681122 0.018260177
000070 af 93 79 3c d6 50 d0 3c dc aa 53 3c 68 87 a2 3c
       0.015232964 0.02542917 0.012919154 0.019839957
000080 bf 2f bd 3c e8 0c c2 3c 96 35 3b 3c 59 57 67 3c
       0.023094056 0.023687795 0.01142635 0.014119946
000090 cc 73 ab 3c ff 67 5d 3d 17 da 47 3c d6 e0 6b 3c
       0.02092924 0.054054257 0.012197993 0.014396867
0000a0 4b 6f 5b 3c 08 02 f9 3c 5a 02 84 3c 58 7d 7f 3c
       0.0133932335 0.030396476 0.016114403 0.015593849
0000b0 fc 99 07 3d c8 c8 7b 3c f0 db e3 3c 76 ce bd 3c
       0.033105835 0.015367694 0.027814835 0.023169737
0000c0 ac db 1c 3c 3a 43 65 3c aa c4 83 3c a0 bf 6d 3c
       0.009573858 0.013993079 0.016084988 0.014511019
0000d0 da a3 2d 3d a1 35 b2 3c af 12 b7 3c 1c d4 46 3c
       0.04239259 0.021754088 0.022347776 0.012135532
0000e0 a9 95 62 3c f9 b6 7b 3c 2d 7a 65 3c 45 c6 40 3c
       0.013829627 0.015363448 0.01400618 0.011766021
0000f0 bc 98 50 3c c5 38 93 3c fe ff 76 3c 31 0b 3c 3d
       0.012731727 0.017971406 0.015075682 0.04590911

patch_embed.rpe_dense.weight f4 [64, 64]
000000 54 aa 2c 3d 00 17 53 3d ff 34 95 bc a0 ab 10 bd
       0.042154625 0.051535606 -0.018213747 -0.035319924
000010 17 49 6e be ce 31 0d bd e0 bb 67 3c 5a 50 c0 3d
       -0.23270069 -0.034471326 0.014143914 0.09390326
000020 00 98 0a be 49 74 fd 3d 3a 3c ca be e8 53 a1 bd
       -0.13534546 0.12375695 -0.39499074 -0.07877332
000030 44 9d 68 3d c9 6d 6d bd c5 ff dc 3d b5 66 80 bd
       0.056790605 -0.057966027 0.10790972 -0.0626959
000040 7f 12 2b 3b 85 34 5d 3d 75 0d 55 3e c4 84 dc ba
       0.0026103554 0.054005165 0.20805915 -0.0016824235
000050 ad 1c 95 be 09 79 32 3d 30 c4 9c 3d 70 b1 12 3e
       -0.2912344 0.04357246 0.07654607 0.143255
000060 2d e3 88 3c ea b8 25 be 9a bd 1b bd 1a 22 1f bc
       0.016709888 -0.1618382 -0.038022615 -0.00971272
000070 d2 2d 20 be 6b 81 a3 bd 44 42 a7 3d 20 2f 2c 3d
       -0.15642479 -0.07983669 0.08166936 0.04203713
000080 92 58 a8 3c 76 51 56 bb 11 d6 4e 3d a1 95 2e be
       0.020550046 -0.0032702363 0.05049712 -0.17049266
000090 67 d1 77 bd af 51 c8 bc 47 e8 1c be aa c5 0e be
       -0.060502436 -0.024453012 -0.15322982 -0.1394259
0000a0 d4 d5 63 bd 44 6c c2 3d d0 16 0d bd 50 c9 3f bd
       -0.055623844 0.09493306 -0.034445584 -0.046822846
0000b0 e3 af e1 3b 6a ee 9d 3d c3 87 91 3e e7 6d 90 3d
       0.0068874224 0.077114895 0.2842389 0.07052212
0000c0 f6 1a fa bd 21 ed dd be ba cb 5b bd 77 c2 cf 3b
       -0.12212174 -0.43344977 -0.053661086 0.0063403207
0000d0 58 8e ac 3c ea 2d 30 3e 9a ae 23 3e d7 bc d9 bd
       0.021063969 0.17205015 0.15984574 -0.106317215
0000e0 93 a2 54 be eb 6e ba 3c 9a 77 d3 3d ce c5 ad 3d
       -0.20765142 0.022757968 0.103255466 0.08484994
0000f0 98 31 8b be ce a2 55 be 5a b1 98 bd 9e 9d 50 bc
       -0.27186275 -0.20862886 -0.07455702 -0.012732891
000100 c2 d3 2b 3d 08 b2 96 3d da 6d f2 3d 16 6a e8 3d
       0.041949995 0.073581755 0.11837359 0.11348359
000110 72 de d5 bd 09 df 8a 3e 5a 0e 0f 3d 6a 3d b1 3c
       -0.10442819 0.27123287 0.034925796 0.02163573
000120 54 be 4a 3d 61 2e f5 3b e7 78 82 3d c1 bf 0e bd
       0.049497917 0.0074823354 0.063707165 -0.03485084
000130 62 74 58 3c e2 1f a1 3d ea d8 27 bc f5 80 b7 bd
       0.013211342 0.07867409 -0.010244587 -0.089601435
000140 3c 14 25 3c ad 02 f5 3d ef 1e 43 3e 45 90 64 3e
       0.010075625 0.11963401 0.19054769 0.2232066
000150 79 1b ad 3e 2c ee df bd 10 c0 bd bd ab 73 2b bd
       0.33810022 -0.109340996 -0.09265149 -0.041858356
000160 69 2b 87 be 99 1d 5d be 0e d6 4a 3d c0 cd 9b bd
       -0.26400307 -0.21593322 0.049520545 -0.07607603
000170 dc bd 09 3d b2 1e c1 bc e3 7b 0b 3e c2 37 29 ba
       0.03362833 -0.023574207 0.13621478 -0.0006455147
000180 0f 6d 8c be c6 35 86 3d 55 a1 27 bd 5a ff eb bd
       -0.27426955 0.06553225 -0.040925343 -0.11523314
000190 69 4b 6c be 15 b3 4d 3d 46 8f 0e be f6 96 da bd
       -0.23075642 0.050219614 -0.13921842 -0.10673325
0001a0 27 58 4b 3d e6 02 22 3e 62 d8 bc bd ac 16 9e bd
       0.049644616 0.15821418 -0.09220959 -0.07719168
0001b0 10 c5 26 ba 3d f5 8e 3e e4 86 21 3d 4f 0e 51 3d
       -0.0006361762 0.27921477 0.039435282 0.051039036
0001c0 64 b2 82 be 3d 28 13 bd e0 39 e6 bc 30 52 a1 3d
       -0.25526726 -0.035927046 -0.028103769 0.07877004
0001d0 10 d8 29 3d 90 66 1e be 67 12 02 3a 7e 7b e8 3d
       0.04146582 -0.15468812 0.00049618486 0.11351679
0001e0 85 06 9b 3c d6 06 90 3e 57 86 bd 3c df bf f4 3e
       0.018924007 0.28130215 0.023135347 0.47802636
0001f0 a4 10 ca 3d 2a c5 1d 3e 90 cb 52 be 08 f2 85 bc
       0.09866455 0.15407243 -0.20585465 -0.016350761
000200 06 30 ba bc e6 e3 23 3d 16 17 43 be 03 40 61 bb
       -0.022727977 0.040012263 -0.19051775 -0.003437043
000210 94 f2 fe bd 1c 33 48 be 66 77 fa bd f2 1e b9 3c
       -0.12448612 -0.19550747 -0.12229805 0.022597764
000220 fb 3f 5b bd 51 f0 fd 3d 58 80 2b bd 71 89 7e bb
       -0.053527813 0.12399352 -0.041870445 -0.0038839246
000230 7e be 14 bd f7 d2 35 be 24 04 78 3e 1f 98 1d bd
       -0.03631448 -0.17756258 0.2422033 -0.038475152
000240 06 ff 07 3e 21 0a dd bd a4 d1 49 bb 34 a0 2d bc
       0.13280877 -0.107929476 -0.0030795122 -0.010597277
000250 b9 88 9f 3c 91 cf 75 3e c9 21 27 3c 0a dd 3e ba
       0.019474374 0.24004962 0.010200926 -0.0007280862
000260 aa 8b 90 3d 88 f7 4d bd 0f 58 1d bd 37 65 06 bd
       0.07057889 -0.050284892 -0.038414057 -0.03281137
000270 2b 88 eb 3c 8b 36 96 bd f0 3b 2b 3d 55 a1 b1 bd
       0.028751453 -0.07334622 0.041805208 -0.0867335
000280 2b b2 67 bd 0d fc 88 3d d5 98 91 bc 69 f4 1a be
       -0.0565664 0.066887 -0.017773071 -0.15132298
000290 10 44 34 bd b4 4f 5d 3e b6 84 b2 bd a4 a1 21 be
       -0.044010222 0.21612436 -0.08716719 -0.15784317
0002a0 7d b1 1f bd 4f 21 ba 3d 1d 2d 67 be 83 e2 2b 3d
       -0.038987625 0.09088384 -0.22575803 0.041964065
0002b0 22 97 3f 3d d4 fc 65 bb a5 7f 6f 3e ec 2f ee 3d
       0.04677499 -0.0035093324 0.23388536 0.11630234
0002c0 cc 1c 53 be 20 a4 e5 bc 0a 8c e3 bd 9c 32 35 3e
       -0.20616454 -0.028032362 -0.11110695 0.17695087
0002d0 a8 b2 6b 3d d6 d2 97 3d 95 98 b2 be 27 cb 7b bd
       0.057543427 0.07413261 -0.34882036 -0.061473038
0002e0 ac 94 89 bc 02 cd 67 38 b8 88 87 be 4f 78 86 bc
       -0.016794525 5.526562e-05 -0.26471496 -0.01641479
0002f0 83 b4 40 be 44 b3 8e bc 7b 9f 0b bd 60 58 f7 3d
       -0.1881886 -0.017419465 -0.03408764 0.12077403
000300 e2 b4 b2 bd bb c1 c3 3d 4d 91 93 bd 99 8c 12 3d
       -0.08725907 0.095584355 -0.07205448 0.035778616
000310 fb 8c 83 bd 99 e5 4e bd 4f 7c 56 bc db aa 52 be
       -0.06423374 -0.05051193 -0.013091161 -0.20572989
000320 33 a1 8e bd e1 5e 41 3d 24 71 2a bd f5 26 f0 bd
       -0.0696434 0.047209624 -0.041611806 -0.117261805
000330 04 d2 c9 bd 4a 4a bc 3b 6b 2f 02 3e a9 38 66 3b
       -0.098545104 0.0057461606 0.12713401 0.0035128987
000340 a8 59 3b 3e aa 9e d4 3c 7f 80 8b 3d e3 de 58 3d
       0.1829592 0.025954563 0.06811618 0.052946936
000350 ef 3f 2e 3b c8 11 3e bd e2 fa 0a 3e 77 a0 00 3e
       0.00265884 -0.046403676 0.13572267 0.12561212
000360 fc 75 09 3d 42 ed 96 3d 03 49 5e be 71 d1 ff 3d
       0.033559784 0.07369472 -0.2170754 0.1249112
000370 99 62 90 3d f0 c9 75 3c d3 3a d6 b9 11 3e 44 be
       0.07050056 0.015001759 -0.00040861088 -0.19164301
000380 2c 0d 1b 3e 85 f7 be bd d9 eb 51 bd aa 7d e1 bd
       0.15141743 -0.09324554 -0.051250312 -0.11010297
000390 e9 fb 0f 3d ff 33 58 3b fb 9c 94 3d c9 3a a9 3c
       0.03515235 0.0032989976 0.07256504 0.020657914
0003a0 e6 37 5a 3e f7 83 19 3e 50 42 64 3d 69 62 e2 bd
       0.21310386 0.14991747 0.055727303 -0.110539265
0003b0 f6 ba a0 3d 62 a6 f7 bb 92 8a 27 be 67 25 40 be
       0.0784816 -0.007557676 -0.16361454 -0.18764268
0003c0 be 52 4f 3e b6 1b c5 bd ff b7 92 bd c0 28 1c be
       0.20246407 -0.09624426 -0.07164001 -0.1524992
0003d0 98 b7 53 3c c8 15 92 be 1c 3f 84 3d 20 93 c5 bd
       0.01292219 -0.28532243 0.0645735 -0.096472025
0003e0 94 3f 37 3e 9b 47 d8 3d 46 c3 a5 3d 45 d4 25 3e
       0.17895347 0.10560533 0.08093886 0.16194256
0003f0 a8 03 11 be c4 bb e0 bd 96 3c 0f be d4 03 07 3d
       -0.14161551 -0.109733135 -0.13987955 0.032962635

patch_embed.rpe_bn.weight f4 [64]
000000 28 91 a3 3f 7b b1 a4 3f a6 1f 79 3f e9 ad 92 3f
       1.2778673 1.2866663 0.97313917 1.1459323
000010 b5 53 8b 3f 29 82 b7 3f e1 97 87 3f 8e e7 98 3f
       1.088492 1.4336597 1.0593225 1.1945665
000020 0e 2a c0 3f 3a 4d 6c 3f 70 96 a1 3f 1a 3a 84 3f
       1.5012834 0.9230534 1.2624035 1.0330231
000030 87 ca 81 3f 13 e8 96 3f b1 7f ae 3f 1e ed 9a 3f
       1.0139931 1.1789573 1.3632718 1.2103612
000040 b7 19 b5 3f ed c9 a9 3f 46 33 a7 3f a5 54 b5 3f
       1.4148473 1.3264748 1.3062522 1.4166456
000050 93 89 9b 3f 3b a2 9f 3f 00 78 94 3f 36 3e 7a 3f
       1.2151359 1.2471384 1.1599121 0.97751176
000060 d0 23 c2 3f 8e 08 aa 3f 9b 92 a0 3f 98 2e 93 3f
       1.5167179 1.3283861 1.254474 1.1498594
000070 af 82 9d 3f 9b 34 94 3f 4e c0 c0 3f f1 d4 a7 3f
       1.2305506 1.1578554 1.5058687 1.311186
000080 81 d8 c2 3f 8f 8e 50 3f e1 eb 96 3f 81 4b 8f 3f
       1.5222322 0.8146753 1.1790735 1.1194917
000090 e1 6e 9f 3f fd 14 b6 3f 8e 9c a8 3f 53 9a 92 3f
       1.2455713 1.4225155 1.3172777 1.1453346
0000a0 99 9e 7d 3f 8e 7e b7 3f 31 ba 9b 3f 8b a6 8c 3f
       0.99070126 1.4335496 1.2166196 1.0988325
0000b0 c7 41 9b 3f 3c f2 87 3f 8b 13 91 3f 89 89 c2 3f
       1.2129449 1.0620799 1.1334089 1.5198222
0000c0 8a 43 76 3f 53 21 9c 3f b3 1d 8f 3f 62 20 b9 3f
       0.96196806 1.219767 1.1180938 1.4463007
0000d0 fb 0b 82 3f 94 ef 8f 3f 02 89 a5 3f 18 1c 88 3f
       1.0159906 1.1244988 1.2932436 1.0633574
0000e0 7e ea 88 3f 18 f6 89 3f 69 df 80 3f 18 3c 5d 3f
       1.0696561 1.0778227 1.0068179 0.8641982
0000f0 f6 88 98 3f 45 8a 92 3f 79 a6 91 3f 1d 9f a1 3f
       1.1916797 1.1448447 1.1378928 1.2626683

patch_embed.rpe_bn.bias f4 [64]
000000 5b fa 95 3e bc b1 de 3d 3b be 10 bd 58 73 b1 bb
       0.2929257 0.10873744 -0.035337668 -0.0054153614
000010 26 e1 bc 3d 3c be db 3e ff b5 21 3d d7 0e 46 3e
       0.09222631 0.42918575 0.039480206 0.19341598
000020 20 e9 07 3f 67 ee 13 be 47 3a d1 3d 36 5e d4 bd
       0.53090096 -0.14446412 0.10216194 -0.10369532
000030 a4 46 36 bc 16 15 04 3e b1 67 74 3e 2e 24 76 3d
       -0.0111252405 0.12898669 0.2386768 0.060093097
000040 80 80 89 3e 27 83 82 3e af ae 4f 3d f9 86 a1 3e
       0.2685585 0.25490686 0.0507037 0.31548288
000050 8b 9a 0e 3e f1 a7 dd 3d 1d b8 48 3e f8 68 0a be
       0.13926141 0.10823048 0.19601484 -0.13516605
000060 4a 7f 85 3e 3d 14 bf 3e d8 a4 8a 3e 04 aa f2 3b
       0.26073676 0.37320128 0.2707889 0.0074055213
000070 88 b1 8f 3d f3 d5 5f 3e e4 0a f6 3e af 9f a1 3e
       0.07016283 0.21858959 0.48055184 0.3156714
000080 92 57 f9 3e a7 5a 84 be 6f 1e ae 3d dd 18 df 3d
       0.48699623 -0.25850412 0.085018985 0.10893414
000090 02 f6 82 3e 8f d6 a0 3e d8 55 a1 3e e1 ad df 3c
       0.25578314 0.31413695 0.31510806 0.027304592
0000a0 9b 26 9e bd f6 4c 94 3e 04 a2 55 3e 59 06 ab bb
       -0.07722207 0.28964967 0.20862585 -0.0052192626
0000b0 0e 36 20 bd c6 d0 ff 3c 41 4c 4c 3a 18 66 7f 3e
       -0.03911405 0.03122748 0.0007793345 0.2494129
0000c0 81 44 74 3c 8d 8f 68 3e f0 c3 4e 3d 1e 16 a5 3e
       0.014908911 0.2271101 0.05047983 0.32243437
0000d0 4b 47 11 bd 73 3a 2b 3d 92 0a 66 3e fc dc 54 3d
       -0.03546838 0.04180379 0.2246497 0.05196856
0000e0 a4 34 4a bd 2e 6e f3 bc c1 e7 1b be a0 d3 7c be
       -0.04936661 -0.029715624 -0.15225126 -0.24690104
0000f0 03 2c d3 3d 86 d0 fd 3d 92 50 04 3e 3c 71 fa 3d
       0.10311129 0.12393288 0.1292136 0.12228629

patch_embed.rpe_bn.running_mean f4 [64]
000000 78 5d 0e be 8c fc b3 3b bb 86 58 bd b8 f6 ab bc
       -0.13902843 0.0054927524 -0.052862864 -0.020991668
000010 70 2c 71 bc e7 fd ab bd df 04 de 3d e7 43 17 be
       -0.014720067 -0.083980374 0.10840773 -0.14771996
000020 62 ae 75 bd 69 e2 52 3d 3e 88 83 bd 41 6d d2 3d
       -0.059980758 0.051485453 -0.064224705 0.10274745
000030 d5 a2 78 3d a1 d3 db bd fd 23 f8 bd 12 c9 e7 bb
       0.060702164 -0.107337244 -0.12116239 -0.00707353
000040 13 cc 30 be 8d 4f 8f bd 21 9b 27 bd e9 5f c2 bc
       -0.17265348 -0.06997595 -0.040919427 -0.023727374
000050 ee 6e 78 3d 77 42 20 bd 6c 93 fa bd 92 b8 a0 3c
       0.060652666 -0.039125886 -0.1223515 0.01961926
000060 08 4e f9 3c 79 ec 32 be e1 aa 8b bd 81 68 bb bd
       0.030432716 -0.1747302 -0.06819702 -0.09150792
000070 72 e4 d8 3c 53 0b cf bd ad 74 03 be fd a9 d0 bd
       0.026476119 -0.10109582 -0.12837477 -0.10188673
000080 c6 7a 09 be 69 de 90 3c 9d 66 92 bd 46 aa f6 bb
       -0.1342574 0.017684178 -0.07148478 -0.0075276224
000090 7f 2b 96 bd 81 91 06 be 2a 1e da bd 88 0a 8a 3d
       -0.07332515 -0.13141443 -0.106502846 0.0674029
0000a0 ea 5d d0 3d 42 06 84 be 1c c4 aa bd b9 5c 16 3e
       0.10174163 -0.25786024 -0.08338186 0.14683808
0000b0 23 18 02 be 12 14 97 3c ae a8 86 bd cb 19 8c bd
       -0.1270452 0.018442187 -0.06575142 -0.06840857
0000c0 0a 46 0c bd 57 64 fe 3b b7 df 72 3c 52 b4 ff bd
       -0.034246482 0.0077634263 0.014823846 -0.12485565
0000d0 63 99 64 3d c1 8d 7e ba 63 ce 85 3a fd a6 95 3d
       0.055810343 -0.0009710454 0.0010208603 0.07307241
0000e0 e0 a5 bd 3d cd 1a 32 3c d1 d1 7b bc 8a a5 eb 3d
       0.09260154 0.010870648 -0.015369848 0.115061834
0000f0 42 23 26 3e 8c d3 37 3d 4b dd 13 bd 9a ba 3c 3d
       0.16224387 0.04487948 -0.036099713 0.046076395

patch_embed.rpe_bn.running_var f4 [64]
000000 0b 10 ce 3d 45 56 a3 3d 70 1c dd 3d 55 9e 25 3d
       0.10061654 0.07975439 0.1079644 0.0404342
000010 87 e7 9c 3d ea 5d 82 3d 2b 06 00 3e da 09 c4 3d
       0.07661348 0.06365569 0.12502353 0.095721915
000020 67 23 35 3d 48 e9 11 3e 5a 58 26 3d 39 f8 ba 3d
       0.044223215 0.14249146 0.040611602 0.09129376
000030 fb ac e1 3d 77 b3 0d 3e fd 35 3f 3d e6 03 36 3d
       0.110193215 0.13837992 0.046682347 0.04443731
000040 54 f2 83 3d b2 dc a6 3d 04 ed 2b 3d c3 00 a8 3d
       0.06442705 0.08147563 0.041974083 0.0820327
000050 5e 86 80 3d 31 be 49 3d 7e c7 9b 3d 2d b8 88 3d
       0.062756285 0.049253646 0.076064095 0.06675754
000060 bd 5d 46 3d fc e5 69 3d 31 9c 4f 3d f9 bc 8d 3d
       0.04842924 0.057104096 0.050686065 0.06920809
000070 b4 36 49 3d a7 42 f5 3d 98 b4 b6 3d 95 d4 70 3d
       0.049124435 0.119756036 0.08921164 0.058796484
000080 06 a2 10 3e 62 93 71 3d f7 f8 59 3d fe 27 95 3d
       0.14124307 0.058978446 0.053215947 0.072830185
000090 0e db ae 3d c3 1b 63 3d 42 3c 74 3d cf ff af 3d
       0.08537875 0.055446398 0.05962778 0.085937135
0000a0 78 2a 87 3d fa c0 c4 3d 75 30 a6 3d 3b 7a 83 3d
       0.06599897 0.0960712 0.08114711 0.06419798
0000b0 f1 58 71 3d 71 68 aa 3d f5 32 b4 3d fa 40 58 3d
       0.05892271 0.08320702 0.08798782 0.05279634
0000c0 9f b6 e4 3d 46 d3 5c 3d a1 a4 35 3d fc 82 46 3d
       0.11167645 0.053912424 0.044346455 0.04846476
0000d0 43 4a 92 3d 63 77 55 3d de d5 21 3d e5 8f b8 3d
       0.071430705 0.05211581 0.0395106 0.09011821
0000e0 c6 bb 73 3d dd ce 8a 3d c0 a2 5b 3d a0 7e 67 3d
       0.059505247 0.06777737 0.053622007 0.056517243
0000f0 4f 99 7a 3d fb ef 92 3d 10 a5 87 3d 2e df 5a 3d
       0.061181363 0.07174679 0.0662328 0.053435497

block.0.attn.q_linear.weight f4 [64, 64]
000000 3f dc 21 3d ff e6 af bd 91 1b c3 3c 64 70 3b be
       0.039516684 -0.08588981 0.023816856 -0.18304592
000010 3f f5 d6 bc d3 88 4c 3d 9b 90 cf 3d b0 c8 e6 3c
       -0.02623999 0.049935173 0.10135003 0.028171867
000020 f6 48 6e 3d fa 1c 8a bc 54 49 a6 bc 58 c7 68 be
       0.05817505 -0.01685952 -0.020298637 -0.22732294
000030 b2 97 66 bc 32 f8 1b be ee 2f 76 be 0d 3a b1 3d
       -0.014074253 -0.15231398 -0.24041721 0.086536504
000040 33 8e c5 be aa 75 1b 3d 2f 2e f5 bc c9 74 a2 3d
       -0.38585052 0.03795401 -0.029929249 0.07932431
000050 6c 0a e6 3b 22 54 b1 bc fa 83 fd 3d 8b 08 0a be
       0.0070202854 -0.021646563 0.12378688 -0.13479821
000060 ff f7 11 bc ac ee 80 bd 03 37 3f be ba 3a 83 3d
       -0.0089092245 -0.06295523 -0.18673329 0.064076856
000070 a5 1e c9 bc 10 4a bb bc 50 40 b6 3d a9 34 e0 bc
       -0.024550745 -0.022862464 0.088989854 -0.02736886
000080 87 2e f4 3c 8b 5b 61 3e 07 72 88 bc 83 da 2a be
       0.029807342 0.22007577 -0.016655935 -0.16684918
000090 57 57 b0 3d d7 80 a1 bb b8 32 ab bd ed b6 71 be
       0.08610409 -0.004928689 -0.08359283 -0.23604937
0000a0 05 b6 06 be 9a ba 10 bd d0 b9 c9 bb 52 e0 ad bd
       -0.13155372 -0.035334207 -0.006156184 -0.08490051
0000b0 91 97 02 be 9d 25 ad 3d 99 f7 93 ba 47 2e 76 3d
       -0.1275313 0.0845444 -0.0011289 0.060102727
0000c0 37 48 36 be 4b f0 16 be b9 ed 1b 3e 6d ef a3 3c
       -0.17800985 -0.14740102 0.15227403 0.020011628
0000d0 8c 41 02 bd 3e 08 ae bc 87 2f b5 be 16 d2 c8 bc
       -0.03180079 -0.021244165 -0.35387823 -0.02451424
0000e0 54 86 5e bc 91 42 1e be b2 56 45 bd 4e df 2f be
       -0.013581831 -0.1545508 -0.048178382 -0.17175028
0000f0 ce a6 e1 bd 7a 39 fa bc b0 83 32 be 1e 50 91 3c
       -0.110181436 -0.030544985 -0.17433047 0.017738398
000100 3e a7 68 3d 5d 59 d1 bd b4 2c 15 bb 54 67 fa bc
       0.05680012 -0.10222123 -0.002276224 -0.030566849
000110 32 fa 3a bd 56 1c 76 be f7 64 af bd c8 b3 cc 3d
       -0.04564876 -0.24034247 -0.085641794 0.09995228
000120 3e 6d 03 bd af 10 73 3d 30 b8 14 bd 2d 12 c1 bc
       -0.032086603 0.059342083 -0.036308467 -0.023568237
000130 49 d4 be bd 19 bd 8b bc 46 67 84 3e b1 b6 33 bc
       -0.09317834 -0.017057942 0.2586004 -0.01096885
000140 32 c7 7f 3e 7c d5 56 bc 93 2f c0 bd cf 2e b8 bc
       0.2497833 -0.013112422 -0.09384074 -0.022483258
000150 d6 39 00 bd 4b ec cf 3d 78 f1 1d 3a 96 d4 66 b7
       -0.031305157 0.10152491 0.00060250564 -1.3758565e-05
000160 30 f8 cd bd e7 d2 08 3e bb 12 f6 bc 7f 2d 2f bd
       -0.10057104 0.13361703 -0.030038228 -0.042767998
000170 99 49 df bc ae 87 26 3d 53 b4 16 be ff 7c fe bc
       -0.027256774 0.040656738 -0.14717226 -0.031065462
000180 2f 81 89 bd 39 cb 1c 3c 88 0f 23 3d 40 61 73 3e
       -0.06714093 0.009569936 0.039809734 0.23767567
000190 18 ab 3a 3d 66 87 1c be 4e 96 b7 3d e2 59 0b be
       0.045573324 -0.15286025 0.08964215 -0.13608506
0001a0 c1 ac 4e 3d ba 1f 85 bb 51 af 17 be 9f 9b 27 bd
       0.05045772 -0.00406262 -0.14812972 -0.040919896
0001b0 bb 1d 9f be 80 43 9b bd c0 4c 62 bd 77 9b 80 bc
       -0.3107737 -0.07581234 -0.055248976 -0.015699131
0001c0 17 d8 f0 bc b4 6a 6c bd 60 07 75 bd 41 87 24 be
       -0.029399915 -0.057718948 -0.059821486 -0.1606722
0001d0 cd 4c bd be 19 0b 99 bd ac 6b 3a 3e 8a e1 1f bd
       -0.36972657 -0.0747282 0.18205136 -0.03903345
0001e0 39 12 f1 bb 65 66 24 bd 22 91 f5 bd 1b bb 14 3d
       -0.0073569086 -0.040136714 -0.119905725 0.03631125
0001f0 15 79 78 3d 24 f7 8b bd 6f 13 d0 3c b2 94 5f bd
       0.060662348 -0.06834248 0.025399892 -0.054585166
000200 c7 18 25 bd 18 8e 1f be 89 cb 89 bd 48 7f 3c be
       -0.040306833 -0.15581548 -0.067282744 -0.18407929
000210 38 88 98 bd 6f fb 6b 3c 9d 6c 56 be b3 61 6d 3c
       -0.07447857 0.014403208 -0.2093987 0.014488625
000220 35 c9 c6 bd 16 be 4e 3e 90 02 63 bd 21 f9 7f 3a
       -0.09706346 0.201897 -0.055422366 0.0009764601
000230 db a6 34 be 52 36 49 3d a3 09 25 3d 21 09 91 bd
       -0.17641775 0.04912407 0.040292393 -0.07081819
000240 0d bc c5 bd 20 99 19 be 38 5e e7 3c 65 2b 8f bd
       -0.096550085 -0.14999819 0.02824317 -0.06990699
000250 c9 e2 0e bd 8e 52 9f 3d 2e 5c 83 3e ba 00 52 3c
       -0.034884248 0.07779418 0.25656265 0.012817556
000260 fd 43 d9 bc 4b b9 c4 bc e3 8c 56 bd 72 b4 a3 3d
       -0.026521677 -0.024014136 -0.052380454 0.079934016
000270 95 20 29 be ce 1d 4e 3d c7 21 9b bd 7e c2 da bd
       -0.16516335 0.050321393 -0.07574802 -0.10681628
000280 8f 1b aa bd 8c 59 4e 3d af fb 62 bc 40 bd e7 3d
       -0.08306038 0.050378367 -0.013853951 0.113153934
000290 80 be 89 bd b1 d9 26 bd ba ca 94 bc ca 36 c5 3c
       -0.06725788 -0.04073495 -0.018163074 0.024073977
0002a0 b0 2a 49 3d b5 d1 eb bd 73 95 c6 3d 48 e5 fc 3c
       0.049112976 -0.11514608 0.09696474 0.030871049
0002b0 2a 34 13 3d 8b 48 4f 3d c8 27 f3 be 18 67 a6 bd
       0.03593842 0.05060629 -0.47491288 -0.08125132
0002c0 5a 19 b4 bd 54 b4 ec bc ab e3 e7 bc 64 c4 50 3d
       -0.08793898 -0.02889458 -0.028306803 0.050968543
0002d0 e9 9a a9 be eb 42 4e be 88 99 e6 bc 24 df 8c 3d
       -0.33126 -0.20142715 -0.028149381 0.06878498
0002e0 2f df 05 3d 00 8d 72 bd 8a 65 96 bc 81 ed 1a bd
       0.032683548 -0.0592165 -0.018358964 -0.037824158
0002f0 58 bc 87 bd 01 8f d0 bd e0 e6 68 bd 7e de 0e bd
       -0.066277206 -0.10183526 -0.056860805 -0.034880154
000300 2a 62 21 3e 4d 8f ba 3c 7c c9 c4 3c 9e 8c a7 bb
       0.15760103 0.02277341 0.024021856 -0.0051131984
000310 17 a4 10 be 36 95 98 bc 51 c1 5a 3d a5 cb d0 3d
       -0.14125095 -0.018625837 0.053407017 0.10195092
000320 88 0f a7 3d 99 15 a2 bc 52 7a 01 be e4 cd 55 be
       0.08157259 -0.01978569 -0.12644318 -0.20879322
000330 e0 e7 a2 3d ee 12 14 be 3e d9 cd 3b b7 81 7e bd
       0.07954383 -0.14460346 0.006282001 -0.062135424
000340 13 bd f3 bd 72 9e cf 3d 2f 42 ca bd a2 33 e9 3c
       -0.119012974 0.10137643 -0.09875905 0.028467003
000350 43 d3 94 bc bf 0f bc 3d 3c 82 98 bd 11 76 0b be
       -0.018167144 0.09182691 -0.07446715 -0.13619258
000360 1a 13 3a bd 79 c2 c1 bd b8 b8 e1 bd 4a 78 b1 bc
       -0.045428373 -0.09460921 -0.110215604 -0.021663804
000370 06 45 52 bd f8 fb 10 3d cd c7 55 3e 00 9c 6f 3d
       -0.051335357 0.035396546 0.20876999 0.058498383
000380 df 30 5b 3e cf 4f 23 3d 11 15 f0 bb 98 96 f1 bd
       0.21405362 0.039871033 -0.00732673 -0.117963016
000390 3e 2d d6 3d e2 f2 0e be 7f 27 d3 3b d7 b0 f2 bc
       0.10457848 -0.1395984 0.0064439173 -0.02962534
0003a0 ab e6 23 be 15 6b 67 3b 80 d9 a4 bd 0e d9 24 be
       -0.16005962 0.0035311629 -0.08049297 -0.16098425
0003b0 7d c7 49 be d9 f8 cc bd df 48 32 bd 66 43 0d 3e
       -0.19705005 -0.100084014 -0.043526527 0.13795242
0003c0 b7 d4 92 bc 0d de af bb ea 93 b6 bd 1e 55 d6 3d
       -0.017923696 -0.0053670467 -0.08914931 0.104654536
0003d0 fa 77 26 be 4e 66 8a 3d ff 56 49 bb f5 3a 0e be
       -0.16256705 0.06757794 -0.003072202 -0.13889678
0003e0 60 29 0f be 23 31 0a be e5 a3 f8 bd 7d 43 2d bd
       -0.13980627 -0.13495307 -0.121406354 -0.04230069
0003f0 16 c7 2a be fc 80 fb bd fb 3a e5 3c 07 4b bc 3c
       -0.16677508 -0.12280461 0.027982226 0.022984995

block.0.attn.q_linear.bias f4 [64]
000000 38 c8 2f 3d af 87 21 bd 64 a1 a5 3d c0 88 83 bb
       0.042915553 -0.03943604 0.080874234 -0.0040141046
000010 bf c5 ed bd 53 90 f9 3d d3 5c 03 3e 76 52 47 3c
       -0.11609983 0.12185731 0.12828378 0.012165656
000020 17 fb 8e 3b 57 cc 88 3d c7 7b 4e 3d 65 f1 ec bc
       0.0043634283 0.066796 0.050411012 -0.0289237
000030 85 3a 28 bd 3b f8 f5 bb e1 e4 39 3e ce 1c cb 3a
       -0.041071434 -0.007506398 0.18153717 0.0015496255
000040 e6 23 6a 3d c7 6a 01 3d 0e e7 fb 3b 8a e4 04 3d
       0.05716314 0.03159597 0.007687456 0.032444514
000050 fb c8 f3 3c 89 dd da bc aa 81 53 3c 06 af 03 3c
       0.02975892 -0.026716964 0.012909332 0.008037334
000060 d7 30 21 be 20 26 ce 3d e9 40 39 bd ca ef 43 3d
       -0.15741287 0.100658655 -0.04522792 0.047836103
000070 25 78 4c 3d 5a d8 b3 3c ea 00 4d 3d 93 53 b1 3d
       0.049919266 0.02195375 0.0500497 0.08658519
000080 9b 97 5d bd 27 13 40 3e 3a 2c c9 bd 31 fc 90 3c
       -0.05409966 0.18757306 -0.09822889 0.01769838
000090 54 bf bb bc 75 42 2f 3d 29 87 2d 3d f9 92 4f 3c
       -0.02291838 0.042787988 0.042365227 0.012669318
0000a0 0b 43 b7 bc f3 71 e4 3b 29 8a d7 3d 11 f4 ec 3c
       -0.022370836 0.0069715916 0.10524399 0.028924974
0000b0 e4 3d 7b bd 3c f8 2e 3e bc 7b 1a be 2c c3 dc ba
       -0.06133832 0.17086881 -0.15086263 -0.0016842834
0000c0 92 9f d6 3d d3 68 fd bd b3 31 eb bd bb a4 aa 3d
       0.10479654 -0.12373509 -0.11484089 0.08332201
0000d0 b5 43 9b 3b ea 6e e8 bd 5c 27 03 be 0d 67 08 be
       0.004738296 -0.1134928 -0.12807983 -0.13320561
0000e0 61 94 1f be b6 58 13 3d dd 85 78 3d 17 5b a1 bc
       -0.15583946 0.035973273 0.060674537 -0.019696755
0000f0 d8 04 28 bd b2 d0 74 bd ac 75 13 3c c1 e9 14 3d
       -0.041020244 -0.05976934 0.009000223 0.036355738

block.0.attn.q_bn.weight f4 [64]
000000 53 94 de 3f 11 f6 be 3f 4d 67 e0 3f ae 39 b3 3f
       1.7389015 1.4918844 1.7531525 1.4001977
000010 26 62 9f 3f c4 62 f5 3f 83 2a ba 3f 18 2a b2 3f
       1.2451828 1.9170766 1.4544224 1.3919096
000020 59 64 c4 3f be b3 ad 3f 0a aa b9 3f dd 5a b6 3f
       1.5343124 1.3570478 1.4505017 1.4246479
000030 02 34 f6 3f 52 88 b2 3f 27 ad a6 3f d4 fd a3 3f
       1.9234622 1.3947852 1.3021592 1.2811837
000040 07 e1 9b 3f 92 e6 c8 3f d6 e7 b5 3f 3f e6 d9 3f
       1.2178048 1.5695364 1.4211376 1.702339
000050 6d 0a ae 3f 68 00 bc 3f 39 89 ca 3f 63 1e c2 3f
       1.3596932 1.4687624 1.5823127 1.5165523
000060 00 81 b2 3f c8 b5 9c 3f 00 96 ac 3f 20 c4 b3 3f
       1.3945618 1.2242975 1.3483276 1.4044228
000070 d9 ac a5 3f c3 a6 c6 3f 03 7b ba 3f 2c e0 96 3f
       1.2943374 1.5519642 1.456879 1.1787162
000080 10 cc b6 3f d2 bc e8 3f c9 d3 cb 3f 0a 46 f9 3f
       1.4281025 1.8182623 1.5924007 1.9474499
000090 7e b3 b9 3f 6d bf c5 3f c3 2c b6 3f 6b fb e2 3f
       1.4507902 1.5449044 1.423241 1.7732977
0000a0 cf b3 9e 3f c9 c4 d1 3f 9f af ac 3f 31 12 aa 3f
       1.2398623 1.6388179 1.3491095 1.3286802
0000b0 df e4 c4 3f 7d 6b e0 3f d8 fd 0b 40 31 e4 a9 3f
       1.5382346 1.7532803 2.1873684 1.3272763
0000c0 44 0a b9 3f bc f8 8f 3f 59 c2 a1 3f 20 c9 bb 3f
       1.4456258 1.1247783 1.2637435 1.4670753
0000d0 97 18 dd 3f 70 a5 a9 3f 3d 05 ca 3f c4 37 a5 3f
       1.7273129 1.3253613 1.5782849 1.2907643
0000e0 2c 76 a7 3f 73 b5 ae 3f 7f 22 a2 3f f5 9d 92 3f
       1.3082938 1.3649124 1.2666777 1.1454455
0000f0 db 55 ea 3f bd bd 9d 3f 0d da aa 3f 42 f6 ba 3f
       1.8307451 1.2323529 1.3347794 1.4606402

block.0.attn.q_bn.bias f4 [64]
000000 be 7c d9 3e 27 7c f3 3e 17 36 2e 3f 49 a2 c9 3e
       0.42477983 0.47555658 0.68051285 0.39381626
000010 00 a4 54 3e ac 14 12 3f 30 2b 9a 3e e2 06 7d 3e
       0.20765686 0.5706279 0.30111074 0.24709657
000020 de ba 0e 3f d3 b0 d0 3e ec ec b7 3e 72 50 e5 3e
       0.55753887 0.40759906 0.35922945 0.44787937
000030 e0 79 38 3f 29 ef 72 3e 03 9d a1 3e 02 74 27 3e
       0.72060966 0.23724045 0.31565103 0.16352847
000040 d8 78 2c 3e 12 a6 d2 3e d7 d1 a1 3e b3 e7 34 3f
       0.16842973 0.41142327 0.31605408 0.70666045
000050 9d 88 b3 3e b6 9c 09 3f 98 e8 00 3f 14 85 cd 3e
       0.35065165 0.53754747 0.5035491 0.40140593
000060 35 20 b7 3e 6f 84 2a 3e fa 1e 8a 3e e7 2c 89 3e
       0.3576676 0.16652082 0.26976758 0.2679207
000070 e9 80 8c 3e 4a 93 c6 3e 99 ca f3 3e ae 12 07 3e
       0.274421 0.38784248 0.47615507 0.1319072
000080 4e f4 f7 3a 36 8e d9 3e 79 04 16 3e 91 9b e9 3e
       0.0018917413 0.4249131 0.14650144 0.456265
000090 48 fc ad 3b 2f bc 45 3e 20 1c 8d 3d 80 d9 b1 3e
       0.0053096153 0.19310068 0.0689013 0.34736252
0000a0 54 37 13 bb 16 7a 97 3e e5 ac 92 3b 1f 99 35 3b
       -0.0022463398 0.29585332 0.004476177 0.0027709675
0000b0 5e 02 8e 3e 73 c5 f3 3e 8e d7 35 3f 3b 1f 2b bc
       0.2773618 0.4761158 0.71032035 -0.010444458
0000c0 55 d6 96 3e 45 9d 8b 3d 2a 30 1b 3e ae b6 ac 3e
       0.29460397 0.06817106 0.15155092 0.33733124
0000d0 f5 80 e4 3e 6e 8f 89 3e 27 73 c9 3e a8 a1 59 3e
       0.44629636 0.2686724 0.39345667 0.21253073
0000e0 91 9e 63 3e 9b e6 93 3e 60 9f 1a 3e 4a 77 90 3d
       0.22228457 0.28886876 0.15099859 0.070540026
0000f0 92 65 c4 3e c4 8a 2c 3e 44 2e 4a 3e f3 30 96 3e
       0.38358742 0.1684981 0.19744211 0.2933422

block.0.attn.q_bn.running_mean f4 [64]
000000 5d bb 88 be 0e bb 95 be f7 03 8c be 84 95 d8 bd
       -0.26705447 -0.29244274 -0.27346775 -0.10575393
000010 d7 d5 6a be c0 90 d1 bd e9 24 b9 3d 8d c5 90 3c
       -0.22933136 -0.10232687 0.09040243 0.017672325
000020 fb ab c1 be 38 a2 28 be ae 9c 5a be cb f6 50 be
       -0.37826523 -0.16468132 -0.21348831 -0.20406644
000030 7c 03 dd be 63 10 98 be 50 3e 17 3e ae 9a 44 3d
       -0.4316672 -0.29700002 0.14769864 0.047999077
000040 e8 62 25 3c a0 5c 10 be 61 83 f4 bd 9d b5 66 be
       0.010094382 -0.14097834 -0.11939121 -0.22530217
000050 64 19 9e be 67 7e 8c be a0 86 a4 be 25 8e ae be
       -0.30878747 -0.27440187 -0.3213396 -0.34092823
000060 04 92 ed be a3 13 d1 3c 8e 2b 85 be 01 a4 55 3d
       -0.46400464 0.025522059 -0.26009792 0.05215836
000070 d4 51 0a be bf 28 97 be b0 e8 d1 be 33 f9 bd 3c
       -0.13507777 -0.29523274 -0.4099784 0.023190117
000080 42 4a 89 3e 86 b7 52 be d3 33 24 bb 6f f9 81 be
       0.26814467 -0.20577821 -0.0025055304 -0.25385615
000090 62 79 ba 3e 08 8e 6f 3d 62 86 d2 3e 3a ba b8 be
       0.36420733 0.05848506 0.4111815 -0.3607958
0000a0 ce 5e 77 3c 3a f0 c7 be d8 8a b6 3e 8c 7a 90 3e
       0.015098287 -0.39050466 0.35652804 0.28218496
0000b0 27 9d 8d be a3 60 5c be 10 c1 d2 be 4b 74 59 3e
       -0.2765896 -0.21521239 -0.4116292 0.21235768
0000c0 45 37 69 be 8d aa 4b be 14 14 6a be 27 14 7e bd
       -0.2277499 -0.19889279 -0.22859222 -0.062030938
0000d0 d1 cd 7f be 77 c8 d9 be db e0 fe be a5 c3 91 3d
       -0.24980856 -0.42535755 -0.49780926 0.07117394
0000e0 49 a5 74 bd 20 ed 94 be 2a e9 a9 3e d5 19 59 3e
       -0.05972794 -0.29087162 0.33185703 0.2120126
0000f0 e1 31 bd be a2 20 07 3d 3c 5e 99 be ee 16 35 be
       -0.36952117 0.032990105 -0.29954708 -0.17684528

block.0.attn.q_bn.running_var f4 [64]
000000 3c b0 39 3e c7 73 6c 3e 88 a7 40 3e 3c c4 3e 3e
       0.18133634 0.2309104 0.18813908 0.18629545
000010 82 96 08 3e e4 05 29 3e 77 6f 1d 3e 05 df 24 3e
       0.13338664 0.16506153 0.15374552 0.161007
000020 71 b4 69 3e f5 9c 21 3e d8 89 1f 3e 71 af 7d 3e
       0.22822739 0.1578253 0.15579927 0.24773957
000030 79 84 b9 3e 2f 6d 1e 3e ec fa 20 3e 53 4a ea 3d
       0.3623388 0.15471338 0.15720719 0.114399575
000040 8a c4 dd 3d a8 f4 25 3e f9 09 bc 3d 4f 40 08 3e
       0.108285025 0.1620661 0.0918159 0.13305782
000050 42 22 77 3e 28 24 4f 3e 10 d6 39 3e 39 3f 30 3e
       0.24134162 0.20228636 0.18148065 0.17211618
000060 91 d0 82 3e 54 d2 92 3d 41 ab 32 3e 7e 4e 06 3e
       0.2554975 0.07169023 0.1744814 0.1311588
000070 df 2d 1b 3e 55 a1 60 3e 06 d0 b8 3e 34 3f b5 3d
       0.15154217 0.21936543 0.3609621 0.08849946
000080 ef db 92 3e e9 0d 87 3e cd 18 67 3e de a5 4a 3e
       0.2868342 0.263778 0.22568054 0.19789836
000090 e4 10 bc 3e 24 8b 66 3e e6 23 98 3e 72 a4 80 3e
       0.36731637 0.22514015 0.29714888 0.25125462
0000a0 5f e9 db 3d af 80 9c 3e ef de 86 3e 51 b2 38 3e
       0.107378714 0.30566928 0.2634196 0.18036772
0000b0 18 cf 8e 3e d2 8a 47 3e 20 37 19 3e 3b d8 2d 3e
       0.27892375 0.1948655 0.14962435 0.16977017
0000c0 cc a7 52 3e 8e 0f fc 3d 72 c7 c9 3d f8 bf 52 3e
       0.20571822 0.12307654 0.09852494 0.20581043
0000d0 63 fc 14 3e e0 5e d3 3d 13 52 38 3e c1 ad 87 3e
       0.14549403 0.1032083 0.18000059 0.2649975
0000e0 6c 59 60 3e 23 48 41 3e 88 26 28 3e 15 47 77 3e
       0.21909112 0.18875174 0.16420949 0.2414821
0000f0 54 24 3b 3e 71 a1 ec 3d 9a f5 3b 3e 02 51 08 3e
       0.18275577 0.1155423 0.18355408 0.13312152
